.dart_tool/chrome-device/Default/optimization_guide_prediction_model_downloads/e263d88a-6bbc-4d6b-a9bc-0da8ff6b84ee/model.tflite (tflite, 410364 bytes, 166 tensors)

context_transformer_0/bottleneck_input/norm/add f4 [32]
0.015275024 -0.14105192 -0.015605278 0.011318363 0.004138788 0.019320551 0.012310158 -0.11232172
0.23450932 0.09050649 -0.0025805854 -0.15286225 -0.021027036 0.080165125 0.07510726 0.023699492
-0.09507403 0.09202101 0.11923066 0.02189254 0.042003162 0.05881629 0.0961053 0.06362355
0.02170154 0.3209095 -0.06574804 0.066061445 0.14541152 -0.10730458 0.06634333 0.014448918
00000000: 1844 7a3c ea6f 10be 48ad 7fbc a870 393c
00000010: ac9e 873b 2246 9e3c 8cb0 493c ee08 e6bd
00000020: 3623 703e 775b b93d 0a1f 29bb ec87 1cbe
00000030: e440 acbc 9d2d a43d d6d1 993d 7025 c23c
00000040: 2cb6 c2bd 8375 bc3d 342f f43d fc57 b33c
00000050: 820b 2c3d 5ae9 703d dbd2 c43d 104d 823d
00000060: 6ec7 b13c 404e a43e e9a6 86bd 394b 873d
00000070: c2e6 143e 81c2 dbbd 03df 873d 28bb 6c3c

context_transformer_1/bottleneck_input/norm/add f4 [32]
-0.15947482 0.187819 -0.11798057 0.045255 -0.11779815 -0.14097223 -0.014304934 -0.08461603
0.1070197 0.052882098 0.2580507 0.18900488 0.089379385 -0.020667383 0.0030360501 0.105596736
0.030411571 -0.18015464 -0.18255427 -0.004111344 -0.030308932 -0.048333947 0.04422269 0.0343479
-0.08334468 -0.14676034 -0.05407232 0.13687216 0.17472914 0.060479436 -0.051161043 -0.029281322
00000000: 5e4d 23be a053 403e cc9f f1bd 4f5d 393d
00000010: 2840 f1bd 065b 10be 3e5f 6abc 2b4b adbd
00000020: 252d db3d e69a 583d 391f 843e 7f8a 413e
00000030: 8a0c b73d a54e a9bc 78f8 463b 1a43 d83d
00000040: b021 f93c 757a 38be 82ef 3abe 74b8 86bb
00000050: 704a f8bc d1f9 45bd da22 353d 62b0 0c3d
00000060: 9eb0 aabd 5848 16be f07a 5dbd 3728 0c3e
00000070: 32ec 323e 49b9 773d 3e8e 51bd 62df efbc

mention_transformer_0/bottleneck_input/norm/add f4 [32]
0.027512036 -0.088637814 0.0053345743 0.032500427 -0.034094382 -0.07725371 0.025946718 0.10166027
-0.13157128 0.13446093 -0.09805697 -0.043284208 -0.13432081 0.057893507 -0.02247027 -0.066175476
0.020863552 -0.19635867 0.0060665817 0.006443026 0.10677545 0.060012706 -0.044354573 0.17304258
0.16946241 -0.00073299196 0.07476121 0.12752604 0.1379137 0.24912599 0.18513487 0.12465478
00000000: ec60 e13c be87 b5bd a7cd ae3b 2b1f 053d
00000010: 8da6 0bbd 3137 9ebd 368e d43c 4233 d03d
00000020: 9fba 06be 20b0 093e 18d2 c8bd c84a 31bd
00000030: 658b 09be be21 6d3d 9213 b8bc 0287 87bd
00000040: 0aea aa3c 3f12 49be 2dca c63b 0520 d33b
00000050: 16ad da3d e2cf 753d 24ad 35bd 1332 313e
00000060: 8e87 2d3e 4226 40ba 681c 993d 3096 023e
00000070: 4039 0d3e e21a 7f3e ff93 3d3e 014b ff3d

mention_transformer_1/bottleneck_input/norm/add f4 [32]
0.16483974 -0.23937863 -0.06857224 -0.31315532 0.042462364 -0.09992454 0.1332319 0.035456058
0.002019249 -0.041987415 0.22037935 -0.15875946 0.04630802 0.47393087 0.123090446 -0.10694607
0.098027445 -0.08477114 -0.023067214 -0.114928685 0.042150248 0.110479146 -0.040157232 0.010467064
0.028843852 0.12363933 -0.047761366 -0.1791994 0.25703725 -0.21320958 0.20996326 0.39195913
00000000: c0cb 283e ac1f 75be 9a6f 8cbd e555 a0be
00000010: 04ed 2d3d 3da5 ccbd f16d 083e 5f3a 113d
00000020: 6055 043b fffa 2bbd 20ab 613e d791 22be
00000030: 7aad 3d3d 11a7 f23e d816 fc3d 8b06 dbbd
00000040: 9dc2 c83d 7e9c adbd 74f7 bcbc bb5f ebbd
00000050: bda5 2c3d e442 e23d e97b 24bd 0c7e 2b3c
00000060: f149 ec3c 9e36 fd3d 6ca1 43bd 0c80 37be
00000070: 639a 833e 9d53 5abe 9c00 573e deae c83e

context_transformer_0/attention/value/add;context_transformer_0/attention/value/einsum/Einsum;context_transformer_0/attention/value/add/ReadVariableOp/resource f4 [32]
-0.075765066 0.011670419 0.09863974 0.10988167 -0.023227526 0.055619348 0.13509937 -0.017210132
-0.036694143 -0.111137114 -0.038736794 -0.013691979 0.058193956 -0.031574756 0.09133358 -0.019761147
-0.052225694 0.06670788 0.016082764 -0.03746257 0.05845489 -0.11064046 0.015890084 -0.037663527
0.083622724 0.022775939 0.026798185 -0.03214153 -0.034650534 -0.027896885 -0.035975557 -0.09447032
00000000: b72a 9bbd 4935 3f3c a203 ca3d a409 e13d
00000010: a747 bebc 1dd1 633d 7d57 0a3e 43fc 8cbc
00000020: 994c 16bd db9b e3bd 79aa 1ebd 5354 60bc
00000030: c95c 6e3d 8854 01bd 1a0d bb3d 21e2 a1bc
00000040: 9cea 55bd 249e 883d 00c0 833c 5a72 19bd
00000050: 656e 6f3d 7797 e2bd ec2b 823c 1245 1abd
00000060: 6442 ab3d 9b94 ba3c de87 db3c d6a6 03bd
00000070: b8ed 0dbd 0288 e4bc 1b5b 13bd a879 c1bd

context_transformer_0/bottleneck_input/norm/mul f4 [32, 32]
-0.14911118 -0.1242697 -0.13396558 -0.033178616 0.022943014 -0.25973588 -0.16259427 -0.07859071
0.2303283 -0.08597439 -0.14387436 0.051764805 -0.43843693 -0.19180906 -0.0048933118 0.037746713
0.07292172 -0.16505042 -0.23882817 0.12542436 0.2661385 -0.27410477 -0.06591889 -0.21790761
-0.050041348 0.32483682 0.19676533 -0.015064023 0.2093574 0.09580491 0.05646055 -0.035671234
0.11849054 0.1257689 -0.100728855 -0.12470873 -0.35332686 0.05548385 0.22633295 0.113962434
-0.086096205 0.40058783 0.079478666 0.007131256 -0.055697836 -0.16104633 0.17709504 0.04608921
-0.13140018 0.07567808 -0.0620898 0.35914955 -0.058433656 0.12333959 -0.10477999 -0.13013978
0.23961383 0.043015644 -0.0158118 0.12665279 0.04540202 -0.10430183 -0.12177234 -0.43459758
0.19491173 0.13316439 -0.106027834 -0.07019725 -0.5636377 -0.20080476 0.02247874 0.18394083
-0.4644847 0.120012924 -0.10649359 -0.3642716 -0.33479443 -0.013428998 0.047651708 0.18328774
-0.14175518 0.2302666 0.065282494 -0.14958292 -0.07334135 0.11005195 -0.120653056 0.0511558
-0.022645684 -0.17793255 0.25204122 0.20904253 0.2320209 -0.12460121 -0.11629452 -0.53448236
0.16362025 -0.29471034 0.12605458 -0.11994433 -0.17164557 -0.2920648 -0.23242433 -0.01413638
0.033220075 -0.07782215 0.23298824 -0.08234334 -0.46932736 0.10125013 0.101906955 0.064160116
0.15154444 -0.0003182792 -0.070508905 -0.013738985 -0.27045727 0.2883548 -0.18029147 -0.21985963
-0.012240752 -0.048139468 -0.016791668 0.054437123 0.06369048 0.16534615 0.10420616 -0.06357364
-0.2597418 0.19656828 -0.06811 0.0990077 -0.41056898 -0.03343717 0.078581356 -0.209173
0.101647876 0.15924703 0.0345539 0.48900878 -0.19086002 0.23882808 0.11300404 -0.08544203
0.66336495 -0.050590042 -0.3723069 0.23703346 -0.11460462 -0.22524433 0.13750695 0.22560562
-0.49598578 0.33844063 0.21228646 -0.060352493 -0.33594427 0.438783 0.1887089 -0.034555454
0.23745656 0.14621279 0.1729979 0.18898183 0.36350426 0.69532746 0.09241727 0.35568678
-0.47809651 -0.1833453 -0.1457773 0.0925489 0.27334678 -0.40181327 -0.103768215 -0.39504835
0.21874656 -0.12850457 0.18556714 -0.45979738 0.26369607 -0.30831078 0.008669604 0.005215207
-0.29210594 -0.2661081 -0.28785282 -0.5435639 -0.34947163 0.30416286 0.086899094 -0.01959071
0.09673648 -0.14180271 -0.10315792 0.08204675 0.09489823 -0.16592968 0.30441454 0.07453996
0.17501172 -0.110231854 -0.07600694 -0.14914969 -0.06257268 -0.24532577 0.03126927 -0.40244833
-0.094528206 -0.20706101 -0.024379278 -0.16006264 -0.03191134 -0.116502225 -0.17032625 -0.28364044
0.062021255 -0.14516267 -0.11597068 -0.272674 0.09744074 -0.023794068 0.16160154 0.1010563
0.41097537 0.3310806 -0.26968083 -0.45267394 -0.4472167 -0.35699403 -0.7033175 0.037328314
0.11554447 -0.08660695 -0.24399081 0.5019408 -0.19444712 -0.22974552 -0.19036567 0.5138809
-0.07649974 0.13263601 0.4371834 0.03780813 -0.010758698 -0.010303299 -0.46553388 -0.2349871
0.16746826 0.020366881 0.19736746 0.4255893 0.37927917 -0.3504832 0.046232693 -0.5159391
00000000: 9ab0 18be 1d81 febd 462e 09be 4de6 07bd
00000010: fdf2 bb3c 1afc 84be 1d7f 26be 2bf4 a0bd
00000020: 2fdb 6b3e 5713 b0bd cd53 13be 5507 543d
00000030: ce7a e0be 9869 44be 1358 a0bb 4c9c 1a3d
00000040: fc57 953d fa02 29be 5f8f 74be 3e6f 003e
00000050: 4e43 883e 7657 8cbe 7c00 87bd 2c23 5fbe
00000060: 28f8 4cbd 0351 a63e da7c 493e 18cf 76bc
00000070: c961 563e 5d35 c43d 2d43 673d 001c 12bd
00000080: 2bab f23d 90c9 003e ee4a cebd 4a67 ffbd
00000090: 42e7 b4be 0943 633d d3c3 673e 2365 e93d
000000a0: 3553 b0bd d919 cd3e b6c5 a23d 50ad e93b
000000b0: 6a23 64bd 54e9 24be 6758 353e 0ac8 3c3d
000000c0: c58d 06be 1cfd 9a3d e051 7ebd 73e2 b73e
000000d0: 2158 6fbd 7899 fc3d e496 d6bd 5d43 05be
000000e0: 545d 753e 2c31 303d bf87 81bc 45b1 013e
000000f0: 78f7 393d 339c d5bd c763 f9bd 9383 debe
00000100: f196 473e 3f5c 083e 1f25 d9bd 93c3 8fbd
00000110: 8f4a 10bf c39f 4dbe 5625 b83c fc5a 3c3e
00000120: f0d0 edbe 56c9 f53d 5019 dabd cf81 babe
00000130: 2d6a abbe 4d05 5cbc 702e 433d c8af 3b3e
00000140: 4528 11be 02cb 6b3e d4b2 853d 442c 19be
00000150: fd33 96bd eb62 e13d f318 f7bd bf88 513d
00000160: 7183 b9bc f333 36be 8c0b 813e 3f0f 563e
00000170: e396 6d3e eb2e ffbd d22b eebd d6d3 08bf
00000180: 118c 273e 46e4 96be 7414 013e 5fa5 f5bd
00000190: dbc3 2fbe 8489 95be a500 6ebe 469c 67bc
000001a0: c611 083d 3861 9fbd 7894 6e3e a0a3 a8bd
000001b0: ad4b f0be 3a5c cf3d 98b4 d03d 6166 833d
000001c0: 772e 1b3e b6de a6b9 f966 90bd 7b19 61bc
000001d0: 6079 8abe 3ea3 933e 549e 38be e222 61be
000001e0: 6f8d 48bc e42d 45bd ae8e 89bc 76f9 5e3d
000001f0: 2870 823d 8050 293e 0a6a d53d e632 82bd
00000200: e1fc 84be 3249 493e 417d 8bbd 8dc4 ca3d
00000210: 1936 d2be 6af5 08bd 43ef a03d 7231 56be
00000220: c32c d03d a711 233e 6488 0d3d 5c5f fa3e
00000230: cf70 43be 598f 743e aa6e e73d 3bfc aebd
00000240: 49d2 293f 8137 4fbd 039f bebe e6b8 723e
00000250: d4b5 eabd 73a6 66be 9fce 0c3e 2905 673e
00000260: d9f1 fdbe 1748 ad3e 9f61 593e 2d34 77bd
00000270: e300 acbe 2aa8 e03e e83c 413e 058a 0dbd
00000280: d027 733e ceb8 153e 5d26 313e 7484 413e
00000290: 3b1d ba3e fb00 323f 4445 bd3d 941c b63e
000002a0: 11c9 f4be dfbe 3bbe a546 15be 478a bd3d
000002b0: 1cf4 8b3e 78ba cdbe 6e84 d4bd c743 cabe
000002c0: 19ff 5f3e b496 03be 5005 3e3e 906a ebbe
000002d0: 2c03 873e e9da 9dbe f40a 0e3c 54e4 aa3b
000002e0: e98e 95be 523f 88be 7261 93be 0127 0bbf
000002f0: f2ed b2be 3cbb 9b3e 27f8 b13d b27c a0bc
00000300: c71d c63d bb34 11be 7644 d3bd 2008 a83d
00000310: 015a c23d 78e9 29be 39dc 9b3e 68a8 983d
00000320: 4636 333e 3dc1 e1bd 87a9 9bbd b2ba 18be
00000330: 1b26 80bd ae36 7bbe 3514 003d b50d cebe
00000340: 0198 c1bd cd07 54be 0db7 c7bc 76e7 23be
00000350: 77b5 02bd b898 eebd 016a 2ebe 5239 91be
00000360: 000a 7e3d 86a5 14be 0982 edbd ed9b 8bbe
00000370: 038f c73d c7eb c2bc e07a 253e 9bf6 ce3d
00000380: 5d6b d23e 6583 a93e 9b13 8abe e1c4 e7be
00000390: 96f9 e4be ecc7 b6be 9e0c 34bf 93e5 183d
000003a0: 94a2 ec3d fc5e b1bd bad8 79be 317f 003f
000003b0: 251d 47be 6942 6bbe 38ef 42be b38d 033f
000003c0: e5ab 9cbd bcd1 073e 81d6 df3e b3dc 1a3d
000003d0: 4045 30bc 2bcf 28bc 755a eebe 75a0 70be
000003e0: cd7c 2b3e 72d8 a63c b21a 4a3e d7e6 d93e
000003f0: e130 c23e 8972 b3be 7e5e 3d3d 9614 04bf

context_transformer_0/kq_shared_bottleneck/norm/mul;context_transformer_0/kq_shared_bottleneck/norm/add;context_transformer_0/attention/key/einsum/Einsum;context_transformer_0/attention/key/add;context_transformer_0/attention/value/einsum/Einsum;context_transformer_0/attention/key/add/ReadVariableOp/resource f4 [32]
0.015222191 -0.31187782 0.22341883 0.109519154 -0.06700315 0.06517217 0.025127321 -0.11341924
-0.046546765 -0.31387398 -0.14122194 0.25968847 -0.10177427 0.2796297 -0.12754706 -0.21513307
0.14047952 0.15824026 0.1988655 -0.11502799 0.14626908 0.10363733 -0.11528635 0.11703582
-0.040918108 -0.04755065 0.004561027 -0.38789946 0.1358036 -0.036637112 -0.38070178 0.07640107
00000000: 7f66 793c 73ae 9fbe e8c7 643e 944b e03d
00000010: f338 89bd fd78 853d d0d7 cd3c 5948 e8bd
00000020: d2a7 3ebd 17b4 a0be 7c9c 10be e3f5 843e
00000030: 076f d0bd a02b 8f3e b29b 02be d84b 5cbe
00000040: ddd9 0f3e bc09 223e 66a3 4b3e cb93 ebbd
00000050: 90c7 153e cf3f d43d 401b ecbd 7ab0 ef3d
00000060: bf99 27bd 78c4 42bd ab74 953b c29a c6be
00000070: 1910 0b3e cc10 16bd 58eb c2be 2a78 9c3d

context_transformer_0/kq_shared_bottleneck/norm/mul;context_transformer_0/kq_shared_bottleneck/norm/add;context_transformer_0/attention/key/einsum/Einsum;context_transformer_0/attention/key/add;context_transformer_0/attention/value/einsum/Einsum;context_transformer_0/attention/key/add/ReadVariableOp/resource1 f4 [32, 32]
0.29516926 -0.27017266 -0.022648215 0.37096047 0.11171293 0.25013438 0.058434077 -0.30216825
0.39074478 -0.016370632 0.0024516846 -0.08830428 0.06821153 0.06435408 0.2528402 0.13986568
-0.05221073 -0.20738707 -0.027330345 0.025803702 -0.43146315 0.118862204 0.07987952 -0.13030082
0.011517494 -0.022943307 0.0255821 0.015818642 -0.065309696 0.041040514 -0.084342495 -0.12696728
-0.20725934 0.07571271 -0.15637028 -0.13271669 0.2903214 -0.072294354 -0.23356293 0.108137935
-0.085044414 -0.2361608 0.3545798 0.039200902 0.6747376 0.25473648 0.1834974 -0.15986553
-0.09753752 -0.19390008 0.08383063 -0.0034105056 0.020593822 -0.07273963 0.309858 -0.19551644
0.10300265 0.14060947 -0.2050689 0.33283564 -0.259309 0.31727806 -0.35325944 -0.5983865
-0.32617414 0.2923401 -0.36440018 -0.24303637 0.021057425 -0.28833354 0.05374169 0.16837157
-0.23087509 -0.19558038 0.076020524 -0.32120767 -0.44247922 -0.021055182 -0.2884129 -0.14889553
-0.01027261 0.24213222 0.21689668 -0.23875812 0.37162685 -0.044830766 -0.12727463 0.18072942
0.08266184 -0.028058011 0.17254622 0.17085391 0.1413909 -0.11170361 0.20541188 0.3227782
0.33031097 -0.32077253 -0.09063931 0.39702463 0.1109577 0.3013272 0.06893202 -0.30595726
0.39738375 -0.021697909 -0.042088315 -0.2244251 -0.059750576 0.040249683 0.22465293 0.14592513
-0.15471381 -0.177941 0.01627127 -0.022473 -0.39685512 0.17098173 0.07199959 -0.14034204
-0.02622468 -0.020990716 0.10710535 0.03893769 -0.046808038 -0.06412742 -0.06852705 -0.059997305
-0.40580052 0.33603904 -0.07393488 -0.42270938 -0.051639117 -0.3991524 -0.044646993 0.3285474
-0.4431456 -0.11268732 0.077332444 0.0480842 -0.025682721 0.027828516 -0.23668386 -0.20941582
0.12580898 0.23262598 0.05355969 -0.02061515 0.49997267 -0.1884729 -0.081069075 0.09882029
0.0359637 0.012724983 -0.016965333 0.07635377 0.069386624 0.04724824 0.055892274 0.061384983
-0.04464411 -0.047812615 -0.4312542 0.11215339 0.27740854 0.004996021 0.028542364 -0.0705172
0.20353965 -0.20998916 0.21407382 -0.3906872 0.067292586 0.19426855 0.09269907 0.05175708
-0.21656716 -0.07342546 0.21138741 -0.12263028 -0.055185307 -0.012826735 0.19184436 -0.112030506
0.07399632 -0.06738641 0.15523526 0.4142801 -0.058170766 0.035975333 -0.04509693 -0.33073932
0.30124056 -0.2880504 -0.048523664 0.38804498 0.08630155 0.2505898 0.020043986 -0.30419484
0.31285754 0.04637235 -0.006273846 -0.0750979 0.045478635 0.03703494 0.25230506 0.11014904
-0.100805394 -0.20600136 -0.044398494 0.018235514 -0.4373349 0.1111534 0.08228484 -0.1328278
-0.010289998 0.03012439 0.05596756 0.022884946 -0.08058237 0.024994215 -0.09414727 -0.014819439
-0.17033732 0.08407003 -0.47565326 -0.08042449 0.39967665 -0.0957195 -0.12432887 0.065285526
-0.028254868 -0.33658057 0.44100246 -0.31158736 0.34110287 0.36806473 0.1695071 -0.138644
-0.23497912 -0.1427689 0.26484582 -0.1713503 -0.0030188814 -0.03516483 0.28628853 -0.16524352
0.18065415 0.106396556 -0.017520018 0.52034056 -0.21036074 0.28175133 -0.2212919 -0.43620855
00000000: 6d20 973e 1254 8abe c088 b9bc 88ee bd3e
00000010: c0c9 e43d 9d11 803e 9258 6f3d ccb5 9abe
00000020: b30f c83e b41b 86bc 71ac 203b e0d8 b4bd
00000030: 7db2 8b3d 12cc 833d 4574 813e f338 0f3e
00000040: ebda 55bd 475d 54be e3e3 dfbc 4962 d33c
00000050: bde8 dcbe 076e f33d e097 a33d 946d 05be
00000060: dfb3 3c3c 9af3 bbbc 8d91 d13c 1996 813c
00000070: 17c1 85bd 191a 283d c2bb acbd b603 02be
00000080: cb3b 54be 440f 9b3d 881f 20be e2e6 07be
00000090: 02a5 943e 100f 94bd 1f2b 6fbe 6c77 dd3d
000000a0: c42b aebd 23d4 71be 7c8b b53e 2091 203d
000000b0: 9abb 2c3f d26c 823e bee6 3b3e cab3 23be
000000c0: c0c1 c7bd be8d 46be 65af ab3d ca82 5fbb
000000d0: 60b4 a83c 84f8 94bd b5a5 9e3e 7635 48be
000000e0: 0ef3 d23d eefb 0f3e 95fd 51be 6f69 aa3e
000000f0: 26c4 84be 4572 a23e 6cde b4be dc2f 19bf
00000100: 4c00 a7be 9aad 953e a992 babe 87de 78be
00000110: 9f80 ac3c 74a0 93be 3f20 5c3d 9969 2c3e
00000120: 856a 6cbe 3946 48be a6b0 9b3d 5575 a4be
00000130: a38c e2be eb7b acbc dbaa 93be 1278 18be
00000140: 734e 28bc 82f1 773e 2a1a 5e3e 027d 74be
00000150: e045 be3e 77a0 37bd 4854 02be 2211 393e
00000160: 9c4a a93d ead9 e5bc f5af 303e 54f4 2e3e
00000170: c7c8 103e ddc4 e4bd 7e57 523e 2f43 a53e
00000180: 851e a93e 4c3c a4be 1aa1 b9bd d046 cb3e
00000190: ca3d e33d 8f47 9a3e 3b2c 8d3d 6ea6 9cbe
000001a0: e275 cb3e d0bf b1bc cc64 2cbd b2cf 65be
000001b0: 05bd 74bd dadc 243d 6b0b 663e 666d 153e
000001c0: 4c6d 1ebe 2a36 36be 544b 853c 4c19 b8bc
000001d0: 9830 cbbe d615 2f3e 8574 933d d3b5 0fbe
000001e0: 24d5 d6bc b9f4 abbc 0d5a db3d 217d 1f3d
000001f0: c9b9 3fbd 3d55 83bd e957 8cbd bcbf 75bd
00000200: 16c5 cfbe 4f0d ac3e 2c6b 97bd 5d6d d8be
00000210: 8a83 53bd b45d ccbe c4df 36bd 5d37 a83e
00000220: fbe3 e2be 9cc8 e6bd 7960 9e3d f0f3 443d
00000230: 9264 d2bc a1f8 e33c 415d 72be 1a71 56be
00000240: 12d4 003e 8135 6e3e 6861 5b3d 1ae1 a8bc
00000250: 6bfc ff3e 0aff 40be 8b07 a6bd 4b62 ca3d
00000260: ac4e 133d 727c 503c e2fa 8abc 5e5f 9c3d
00000270: 931a 8e3d 5f87 413d 4cef 643d d26e 7b3d
00000280: bedc 36bd 29d7 43bd 5acd dcbe adb0 e53d
00000290: 7e08 8e3e a9b5 a33b add1 e93c 526b 90bd
000002a0: b36c 503e 6607 57be 2b36 5b3e 2708 c8be
000002b0: b2d0 893d 56ee 463e 03d9 bd3d 3bff 533d
000002c0: c8c3 5dbe 1660 96bd f175 583e 9625 fbbd
000002d0: fd09 62bd 3a27 52bc d972 443e 4070 e5bd
000002e0: 628b 973d e301 8abd fef5 1e3e 851c d43e
000002f0: 7844 6ebd df5a 133d 8fb7 38bd aa56 a9be
00000300: 343c 9a3e 587b 93be c0c0 46bd d5ad c63e
00000310: debe b03d 4e4d 803e 4933 a43c 6dbf 9bbe
00000320: dd2e a03e eff0 3d3d d694 cdbb eecc 99bd
00000330: ce47 3a3d f3b1 173d 212e 813e d295 e13d
00000340: 0f73 cebd 05f2 52be 32db 35bd a562 953c
00000350: 5cea dfbe 65a4 e33d f484 a83d 0304 08be
00000360: 6197 28bc 6dc7 f63c 3d3e 653d 3679 bb3c
00000370: 5f08 a5bd abc0 cc3c 49d0 c0bd 3bcd 72bc
00000380: e86c 2ebe e82c ac3d d388 f3be 98b5 a4bd
00000390: 6ba2 cc3e 9608 c4bd 22a0 febd 6bb4 853d
000003a0: c176 e7bc 4a54 acbe 13cb e13e 6188 9fbe
000003b0: 09a5 ae3e fb72 bc3e 4593 2d3e b1f8 0dbe
000003c0: 5e9e 70be 0332 12be df99 873e 7476 2fbe
000003d0: 6dd8 45bb ff08 10bd 6994 923e 9935 29be
000003e0: 67fd 383e 70e6 d93d 2486 8fbc 0a35 053f
000003f0: ce68 57be b641 903e 589a 62be ba56 dfbe

context_transformer_0/kq_shared_bottleneck/norm/mul;context_transformer_0/kq_shared_bottleneck/norm/add;context_transformer_0/attention/query/einsum/Einsum;context_transformer_0/attention/query/add;context_transformer_0/attention/value/einsum/Einsum;context_transformer_0/attention/query/add/ReadVariableOp/resource;context_transformer_0/attention/Mul;context_transformer_0/attention/Mul/y f4 [32]
-0.25513238 -0.008071029 0.20451277 -0.28095588 0.32455787 -0.074961804 -0.24748008 -0.02149931
0.11099925 0.08640398 0.22433196 -0.11377082 0.16383018 -0.28581098 0.21718857 0.17413743
-0.012777579 0.029741574 0.043737527 0.019856893 0.029908307 0.010238989 0.0201963 -0.013463432
0.1922255 0.13321735 -0.17135754 -0.10240337 0.12159901 -0.18270558 0.0048741954 0.12433558
00000000: b6a0 82be 593c 04bc cc6b 513e 73d9 8fbe
00000010: 732c a63e 9385 99bd 6b6b 7dbe 521f b0bc
00000020: 9353 e33d 92f4 b03d 47b7 653e ad00 e9bd
00000030: 19c3 273e d155 92be ae66 5e3e 1551 323e
00000040: 0d59 51bc 9aa4 f33c 1f26 333d ecaa a23c
00000050: 4402 f53c 6fc1 273c b672 a53c ba95 5cbc
00000060: c3d6 443e 216a 083e 5a78 2fbe dcb8 d1bd
00000070: e708 f93d 2c17 3bbe b7b7 9f3b a7a3 fe3d

context_transformer_0/kq_shared_bottleneck/norm/mul;context_transformer_0/kq_shared_bottleneck/norm/add;context_transformer_0/attention/query/einsum/Einsum;context_transformer_0/attention/query/add;context_transformer_0/attention/value/einsum/Einsum;context_transformer_0/attention/query/add/ReadVariableOp/resource;context_transformer_0/attention/Mul;context_transformer_0/attention/Mul/y1 f4 [32, 32]
-0.07745615 0.03676384 0.09857467 0.005669636 -0.059663765 -0.04362058 -0.005112375 0.04739453
0.04032596 0.04839225 0.08344777 0.069932945 0.07806533 0.11687222 0.02902612 0.06047142
0.029397968 -0.060744833 -0.09199931 0.08369828 0.080913305 -0.048641697 0.019883111 -0.06654329
0.11779782 0.044669304 0.11219955 -0.020796852 -0.06409548 0.034041606 -0.02050279 -0.06836902
-0.039306033 0.09359423 -0.0019737172 -0.14521483 0.058477852 -0.117713414 -0.06561447 0.10729613
-0.20345464 -0.074767925 0.020917572 -0.057141494 0.092584275 0.061297443 -0.025957616 -0.11106404
-0.077825345 0.03934422 0.03186932 -0.014213481 0.013777556 0.03330683 0.06168416 -0.05170269
0.09437884 0.014749991 -0.16052534 0.06397469 -0.019035986 0.026532596 -0.01410335 -0.25275353
0.051208463 0.017642345 -0.074978255 -0.07363073 -0.0059227087 -0.030001698 0.08527169 -0.0033912477
-0.1255286 0.01104046 -0.09568029 -0.025147438 -0.110638835 -0.13602395 -0.019829804 0.03513588
0.058027383 0.0067887623 0.034680206 -0.039319996 -0.05543385 -0.027541846 -0.13191459 0.16547735
-0.18128659 -0.037223794 0.0063193333 -0.07923859 0.050532293 0.01717691 0.00857668 0.24780397
-0.08555076 0.041709576 0.12540916 0.022545533 -0.06696127 -0.0536021 0.0013497514 0.050907742
0.030203128 0.059593517 0.06710933 0.09091368 0.08370377 0.10859942 0.06382863 0.09748509
0.071059324 -0.06569014 -0.096221484 0.10354096 0.070160255 -0.07399192 -0.021070689 -0.035572752
0.09204862 0.049130403 0.15381739 -0.03774347 -0.07557515 0.06958876 -0.045987487 -0.01668007
0.07987973 -0.01923869 -0.13769735 -0.0743318 0.081221685 0.005740765 0.024690822 -0.032497652
-0.0974064 -0.057542283 -0.10272019 -0.09198385 -0.09586873 -0.13919298 -0.063750885 -0.06710466
-0.05217358 0.09478847 0.11180657 -0.108122654 -0.073026955 0.059105918 -0.020327684 0.08663706
-0.11500649 -0.06621557 -0.13818023 0.024581637 0.09476318 -0.055141572 0.062651336 0.039099343
-0.05507433 0.07817455 0.038409546 -0.12598194 -0.012900575 -0.14842781 0.028793976 0.09896749
-0.17497082 0.0006979892 -0.01928829 -0.017872734 0.09239766 0.049296778 0.024842026 0.037973125
0.011749706 -0.03157017 -0.028480267 0.041683067 0.002490839 -0.044552084 -0.0419567 0.01703162
0.03652756 0.021717343 0.06464517 -0.0010280735 -0.04246173 0.09129114 -0.04012741 -0.07722867
-0.08781637 0.03190786 0.10762835 0.018687751 -0.07046331 -0.040121682 -0.0142868925 0.05806924
0.050569993 0.03798486 0.08130875 0.073202915 0.0660576 0.107269295 0.02052384 0.05788887
0.030857394 -0.049219485 -0.08583602 0.07709307 0.08042034 -0.0493703 0.010566679 -0.05911493
0.10632527 0.051343728 0.09227762 -0.022235198 -0.05733526 0.03668458 -0.020959789 -0.028951457
-0.077190906 0.11463443 -0.0011028816 -0.20136583 0.020349722 -0.17847559 -0.02195059 0.14952411
-0.2582843 -0.047791973 -0.0051920675 -0.033832125 0.068201095 0.033556685 -0.01521583 -0.04451056
-0.013590049 0.012338264 0.024426498 0.021420933 0.019534893 -0.010423405 -0.0097623505 -0.006725476
0.054913737 0.031383343 -0.08801536 0.0079247905 -0.024237828 0.0647084 -0.019574553 -0.12705967
00000000: 54a1 9ebd ae95 163d 84e1 c93d 5bc8 b93b
00000010: fe61 74bd 7eab 32bd b685 a7bb c420 423d
00000020: d52c 253d f436 463d aae6 aa3d 0139 8f3d
00000030: b7e0 9f3d b45a ef3d 30c8 ed3c e1b0 773d
00000040: 02d4 f03c 93cf 78bd 226a bcbd 016a ab3d
00000050: e0b5 a53d 843c 47bd e8e1 a23c d947 88bd
00000060: fc3f f13d 29f7 363d e1c8 e53d 295e aabc
00000070: 7e44 83bd 366f 0b3d 78f5 a7bc 0f05 8cbd
00000080: 5dff 20bd 55ae bf3d 7b59 01bb 32b3 14be
00000090: 7986 6f3d bb13 f1bd e160 86bd 13be db3d
000000a0: 6a56 50be ed1f 99bd 545b ab3c 330d 6abd
000000b0: d39c bd3d 0713 7b3d 11a5 d4bc 8b75 e3bd
000000c0: e562 9fbd 6827 213d 6789 023d a9df 68bc
000000d0: 42bb 613c be6c 083d 88a8 7c3d 33c6 53bd
000000e0: b149 c13d f2a9 713c c160 24be 2a05 833d
000000f0: 5bf1 9bbc e35a d93c bd11 67bc e968 81be
00000100: f7bf 513d ae86 903c 338e 99bd b5cb 96bd
00000110: 4813 c2bb 1fc6 f5bc eca2 ae3d b23f 5ebb
00000120: 928a 00be 0ce3 343c 07f4 c3bd 0002 cebc
00000130: 9d96 e2bd dd49 0bbe 1d72 a2bc a4ea 0f3d
00000140: 1fae 6d3d 4474 de3b d50c 0e3d 010e 21bd
00000150: 9b0e 63bd 709f e1bc 9e14 07be e572 293e
00000160: 31a3 39be fa77 18bd 6912 cf3b d847 a2bd
00000170: f3fa 4e3d 97b6 8c3c 3485 0c3c 53c0 7d3e
00000180: 3d35 afbd a9d7 2a3d 426b 003e 69b1 b83c
00000190: fe22 89bd e08d 5bbd 24ea b03a a384 503d
000001a0: 8d6c f73c 5518 743d 9e70 893d f430 ba3d
000001b0: e26c ab3d 5f69 de3d 96b8 823d 43a6 c73d
000001c0: 8d87 913d 8d88 86bd c50f c5bd 480d d43d
000001d0: 2eb0 8f3d 1389 97bd 709c acbc bcb4 11bd
000001e0: fd83 bc3d f63c 493d 4e82 1d3e e698 1abd
000001f0: 25c7 9abd 8d84 8e3d 605d 3cbd a4a4 88bc
00000200: fc97 a33d 759a 9dbc 8900 0dbe 453b 98bd
00000210: 8e57 a63d 071d bc3b 6844 ca3c 421c 05bd
00000220: 027d c7bd 75b1 6bbd f75e d2bd 0762 bcbd
00000230: d356 c4bd 9b88 0ebe d38f 82bd 2b6e 89bd
00000240: f7b3 55bd 7520 c23d d8fa e43d 696f ddbd
00000250: 288f 95bd 0c19 723d 3e86 a6bc c56e b13d
00000260: 8688 ebbd 079c 87bd 1e7f 0dbe 6e5f c93c
00000270: 3313 c23d 21dc 61bd 584f 803d a226 203d
00000280: 9f95 61bd fa19 a03d 5453 1d3d 6901 01be
00000290: ef5c 53bc 76fd 17be 58e1 eb3c 78af ca3d
000002a0: 8d2b 33be 43f9 363a 7a02 9ebc d769 92bc
000002b0: fc3a bd3d 6beb 493d 8181 cb3c b589 1b3d
000002c0: d781 403c b94f 01bd 734f e9bc ddbb 2a3d
000002d0: 583d 233b 3f7c 36bd cada 2bbd e585 8b3c
000002e0: ec9d 153d 92e8 b13c b064 843d 6cc0 86ba
000002f0: 5aec 2dbd d9f6 ba3d a45c 24bd 112a 9ebd
00000300: 12d9 b3bd d1b1 023d 416c dc3d 0e17 993c
00000310: 114f 90bd a256 24bd 9213 6abc 03da 6d3d
00000320: 7b22 4f3d 0396 1b3d 3485 a63d 69eb 953d
00000330: 3549 873d 01b0 db3d 9d21 a83c e11c 6d3d
00000340: a5c8 fc3c 5f9a 49bd ccca afbd f9e2 9d3d
00000350: 6bb3 a43d 8338 4abd dd1f 2d3c 7f22 72bd
00000360: 10c1 d93d cd4d 523d 0dfc bc3d 9726 b6bc
00000370: 61d8 6abd 9242 163d ddb3 abbc 9b2b edbc
00000380: 4416 9ebd 75c5 ea3d 918e 90ba d832 4ebe
00000390: 76b4 a63c 4ec2 36be b9d1 b3bc d91c 193e
000003a0: d73d 84be 84c1 43bd 3822 aabb 8e93 0abd
000003b0: 04ad 8b3d bc72 093d d14b 79bc b450 36bd
000003c0: cca8 5ebc 6e26 4a3c 141a c83c f47a af3c
000003d0: a407 a03c eec6 2abc 44f2 1fbc 6261 dcbb
000003e0: 3aed 603d d28b 003d 6641 b4bd fbd6 013c
000003f0: 698e c6bc d685 843d d05a a0bc ee1b 02be

context_transformer_0/ffn_layer_0/intermediate_dense/einsum/Einsum;context_transformer_0/ffn_layer_0/intermediate_dense/Relu;context_transformer_0/ffn_layer_0/intermediate_dense/add f4 [32]
-0.4726802 -0.5484782 -0.14762859 -0.53102607 -0.39471436 -0.5007988 -0.30458942 -0.5040985
-0.11465355 -0.5463477 -0.08659421 -0.26028234 -0.26148158 -0.33294594 -0.49349 -0.6156724
-0.31617978 -0.35034394 -0.48676795 -0.49655548 0.022998132 -0.52724034 -0.50215477 -0.50799525
-0.57270455 -0.22117367 -0.45574093 -0.23948105 -0.47258928 -0.38909096 -0.21764661 -0.5035566
00000000: 2403 f2be 1169 0cbf f32b 17be 53f1 07bf
00000010: 0018 cabe 5a34 00bf 25f3 9bbe 990c 01bf
00000020: 7bcf eabd 71dd 0bbf 4e58 b1bd ba43 85be
00000030: eae0 85be e477 aabe b9aa fcbe b59c 1dbf
00000040: 51e2 a1be 4860 b3be a639 f9be 853c febe
00000050: 9466 bc3c 39f9 06bf 378d 00bf fa0b 02bf
00000060: c49c 12bf 5a7b 62be e056 e9be 853a 75be
00000070: 39f7 f1be ee36 c7be c1de 5ebe 16e9 00bf

context_transformer_0/attention/norm/mul;context_transformer_0/attention/norm/add;context_transformer_0/ffn_layer_0/intermediate_dense/einsum/Einsum;context_transformer_0/ffn_layer_0/intermediate_dense/Relu;context_transformer_0/ffn_layer_0/intermediate_dense/add f4 [32, 32]
-0.07644188 0.458412 0.3631284 0.083917126 0.19229746 0.0014953029 -0.10823567 0.44725788
-0.2117285 -0.02730183 -0.048237782 0.618866 0.17800857 0.04579862 -0.071045145 -0.112862155
0.09389843 -0.05775172 -0.16349906 -0.049925927 -0.4783642 -0.36646226 -0.3871706 -0.04868104
-0.01760525 -0.1548981 -0.19464912 0.035932012 -0.25215203 0.04032142 -0.12687962 -0.32982573
0.1945948 0.002510663 -0.21598543 -0.25148934 -0.13904196 -0.060325526 -0.025348803 -0.043973614
-0.20100337 0.0320538 0.013436836 -0.10765558 -0.098401345 -0.23782307 -0.054920223 -0.009788685
-0.060743324 -0.15744877 -0.3265253 -0.21621874 -0.33523595 0.27400222 0.0002463906 -0.036937233
-0.08759835 -0.56285816 0.27892104 -0.16974343 -0.10487543 -0.0003676768 -0.041879628 0.117466725
-0.18066892 -0.08856392 0.18939993 -0.014727409 -0.0039935987 -0.33512133 -0.26366758 -0.123111546
-0.58087933 0.00073105824 -0.2617445 0.010006154 0.037836906 -0.07494049 -0.24121726 -0.044170238
0.154225 -0.11191832 0.23386139 -0.2939523 -0.01696656 0.11267265 0.011930716 0.006661462
0.107148856 -0.34075227 0.44800693 -0.07672741 -0.4187023 -0.39767948 -0.007929899 0.28943536
0.11446748 0.15497848 -0.10835331 -0.11500729 0.12597932 -0.04076268 -0.0878949 -0.03233559
-0.307857 0.13484621 0.035807185 -0.08701476 -0.058292057 -0.3289931 -0.14270458 -0.046191983
-0.1494046 -0.26612422 -0.29905486 0.026734812 -0.18311112 0.2749731 -0.08620628 0.08604097
-0.076135784 -0.48874503 0.29473788 -0.1672834 -0.3072851 -0.07009728 -0.08861665 0.11312423
-0.06752977 0.23003775 -0.024490232 -0.043589786 -0.10943637 -0.17736524 -0.07496263 0.2782621
-0.19171658 0.06970786 0.36433002 0.21374013 -0.21219532 -0.32503623 -0.112135515 0.06262621
0.28437102 -0.030551668 -0.406814 -0.16554461 -0.16443305 -0.014193992 -0.19211426 0.09404697
-0.18786398 -0.4153178 0.27268672 0.060077153 -0.08011969 0.27832782 -0.14652027 0.081976935
0.09394086 -0.021298507 -0.29143208 -0.18165895 0.012248715 -0.11409851 0.08825778 -0.013293478
-0.30358246 0.13427588 0.06451719 -0.048945848 -0.041433357 -0.30289114 -0.08189729 -0.17805786
-0.2786758 -0.20479968 -0.28142253 -0.02728022 -0.27980107 0.24149138 -0.15091775 0.02512753
-0.10549405 -0.46272308 0.24192227 -0.045856204 -0.3459839 -0.07663714 -0.12573698 0.09481785
-0.2679056 0.08539092 0.54145515 -0.21437436 -0.49586368 0.15220867 0.31837025 0.36806375
-0.03318451 -0.19716407 -0.024853585 0.006968478 -0.3075828 -0.068278 0.15747228 0.07173208
-0.3419549 -0.05397295 0.00190953 0.07245086 -0.10681828 0.0001647459 -0.36428067 -0.13890445
-0.3541431 -0.20741653 0.14734304 -0.11016939 -0.26658052 0.15560216 -0.29917794 0.11851564
0.055507373 -0.007304986 -0.09223111 -0.11994498 0.1791035 -0.04216756 -0.059700802 0.035909846
-0.33095714 0.13941166 -0.03085915 0.029408056 -0.07918074 -0.31431454 -0.27538976 0.0022186327
-0.14620665 -0.22835384 -0.21762228 0.10363376 -0.16233066 0.2343208 -0.10476138 0.07238118
-0.16977955 -0.54486465 0.28589097 -0.15570222 -0.30899435 0.047180966 -0.09234819 0.09669785
00000000: 8f8d 9cbd fab4 ea3e f7eb b93e bedc ab3d
00000010: a0e9 443e 0afe c33a aaaa ddbd fcfe e43e
00000020: 5bcf 58be 16a8 dfbc fb94 45bd 016e 1e3f
00000030: e147 363e 5597 3b3d 1e80 91bd 4624 e7bd
00000040: d24d c03d 118d 6cbd 4c6c 27be 217f 4cbd
00000050: 27ec f4be f1a0 bbbe 3a3b c6be c565 47bd
00000060: e338 90bc 9c9d 1ebe 1952 47be 722d 133d
00000070: 121a 81be 1328 253d bbec 01be ebde a8be
00000080: dc43 473e ef89 243b 492b 5dbe 36c3 80be
00000090: 0461 0ebe e617 77bd 4ba8 cfbc ad1d 34bd
000000a0: d4d3 4dbe d84a 033d 2d26 5c3c 877a dcbd
000000b0: a586 c9bd e487 73be 07f4 60bd b860 20bc
000000c0: fecd 78bd 403a 21be 532e a7be 7268 5dbe
000000d0: 0ca4 abbe 054a 8c3e fd2d 8139 7f4b 17bd
000000e0: c466 b3bd 7917 10bf bdce 8e3e 39d1 2dbe
000000f0: eec8 d6bd bfc4 c0b9 f989 2bbd 6592 f03d
00000100: 4601 39be 0061 b5bd 0ef2 413e 3b4b 71bc
00000110: bcdc 82bb 0695 abbe 70ff 86be e821 fcbd
00000120: 82b4 14bf 7da4 3f3a 6003 86be daf0 233c
00000130: dffa 1a3d 667a 99bd a801 77be daeb 34bd
00000140: 29ed 1d3e 6f35 e5bd 5c79 6f3e ea80 96be
00000150: 75fd 8abc ebc0 e63d 0d79 433c 6548 da3b
00000160: dc70 db3d 1577 aebe 2a61 e53e 4323 9dbd
00000170: 2660 d6be a59c cbbe 68ec 01bc df30 943e
00000180: ed6d ea3d aeb2 1e3e 57e8 ddbd f188 ebbd
00000190: b900 013e c5f6 26bd 3e02 b4bd 5372 04bd
000001a0: 6f9f 9dbe 2015 0a3e 8eaa 123d cb34 b2bd
000001b0: a7c3 6ebd c971 a8be 2621 12be ce33 3dbd
000001c0: 85fd 18be 6f41 88be b81d 99be f702 db3c
000001d0: 7b81 3bbe 46c9 8c3e eb8c b0bd 4036 b03d
000001e0: 14ed 9bbd ca3c fabe e2e7 963e 574c 2bbe
000001f0: 7954 9dbe 2a8f 8fbd a57c b5bd adad e73d
00000200: 0c4d 8abd 048f 6b3e bd9f c8bc 348b 32bd
00000210: 2d20 e0bd 3c9f 35be 0286 99bd 5f78 8e3e
00000220: 5a51 44be ffc2 8e3d 7789 ba3e b1de 5a3e
00000230: bb49 59be 266b a6be 4ea7 e5bd 2c42 803d
00000240: 1499 913e 7e47 fabc ed49 d0be 8784 29be
00000250: 2361 28be eb8d 68bc 9ab9 44be b39b c03d
00000260: 6a5f 40be 89a4 d4be 989d 8b3e 7613 763d
00000270: cb15 a4bd fc80 8e3e 6909 16be 86e3 a73d
00000280: 1164 c03d 357a aebc 9636 95be ce04 3abe
00000290: d6ae 483c 7bac e9bd 7fc0 b43d e3cc 59bc
000002a0: 296f 9bbe 9e7f 093e 9721 843d 717b 48bd
000002b0: 06b6 29bd 8c14 9bbe c4b9 a7bd cd54 36be
000002c0: 98ae 8ebe 02b7 51be 9d16 90be c57a dfbc
000002d0: 1642 8fbe 8449 773e 2f8a 1abe 40d8 cd3c
000002e0: 440d d8bd 0aea ecbe 79ba 773e b7d3 3bbd
000002f0: cd24 b1be eff3 9cbd 32c1 00be dc2f c23d
00000300: ec2a 89be 6fe1 ae3d ce9c 0a3f f484 5bbe
00000310: d8e1 fdbe 97dc 1b3e 6d01 a33e da72 bc3e
00000320: 7bec 07bd 61e5 49be bf99 cbbc d557 e43b
00000330: 7e7b 9dbe 56d5 8bbd 6a40 213e 45e8 923d
00000340: b614 afbe bd12 5dbd 3249 fa3a 1e61 943d
00000350: 8bc3 dabd a4bf 2c39 ff82 babe f83c 0ebe
00000360: 3f52 b5be 0065 54be 18e1 163e 7da0 e1bd
00000370: 3e7d 88be 2c56 1f3e da2d 99be 54b8 f23d
00000380: b35b 633d aa5e efbb aae3 bcbd b7a5 f5bd
00000390: e866 373e e4b7 2cbd d488 74bd 3416 133d
000003a0: 3773 a9be eec1 0e3e 54cc fcbc 2ae9 f03c
000003b0: 8329 a2bd d6ed a0be e3ff 8cbe 7b66 113b
000003c0: 32b7 15be 97d5 69be 60d8 5ebe f03d d43d
000003d0: 023a 26be cbf1 6f3e 228d d6bd 963c 943d
000003e0: b1da 2dbe 407c 0bbf 4d60 923e 6770 1fbe
000003f0: 8234 9ebe d440 413d 0c21 bdbd 8609 c63d

context_transformer_0/ffn_layer_1/intermediate_dense/einsum/Einsum;context_transformer_0/ffn_layer_1/intermediate_dense/Relu;context_transformer_0/ffn_layer_1/intermediate_dense/add f4 [32]
-0.22055079 -0.121178895 -0.077467665 -0.09116656 -0.065361425 -0.27329513 0.027375646 0.20065406
0.10625317 -0.093517266 -0.10434866 -0.10451798 -0.21969533 -0.12080278 -0.16096053 -0.2002865
0.26063883 -0.27947178 -0.37475058 -0.2669338 -0.16537298 0.015778914 0.07767784 -0.32956386
-0.040164806 -0.24318686 -0.26904267 -0.095848374 -0.1840662 0.004544599 -0.12653735 -0.15417138
00000000: 11d8 61be a42c f8bd 5ea7 9ebd 89b5 babd
00000010: 36dc 85bd 57ed 8bbe e442 e03c 4278 4d3e
00000020: 439b d93d fb85 bfbd c0b4 d5bd 860d d6bd
00000030: d0f7 60be 7367 f7bd d6d2 24be e717 4dbe
00000040: 7472 853e ed16 8fbe 4fdf bfbe 8cab 88be
00000050: 8957 29be c842 813c 8f15 9f3d 98bc a8be
00000060: da83 24bd fa05 79be f6bf 89be 274c c4bd
00000070: da7b 3cbe dcea 943b 0293 01be 1adf 1dbe

context_transformer_0/ffn_layer_0/norm/mul;context_transformer_0/ffn_layer_0/norm/add;context_transformer_0/ffn_layer_1/intermediate_dense/einsum/Einsum;context_transformer_0/ffn_layer_1/intermediate_dense/Relu;context_transformer_0/ffn_layer_1/intermediate_dense/add f4 [32, 32]
0.11199334 -0.022356074 -0.024395628 -0.069367 0.14769295 -0.1416077 -0.09020761 0.0005559148
-0.105824165 0.09183036 -0.0023752935 0.074048884 -0.09216242 -0.023216328 0.058397956 0.05533373
0.092929214 0.06927088 -0.03640721 0.14818102 0.13774315 -0.3019859 -0.005832897 -0.0185426
-0.06571018 -0.0010913643 0.11159824 -0.10820873 -0.0047318307 0.10736712 0.036055025 0.09915325
-0.108517796 -0.038094178 -0.04489398 0.19603719 0.11240084 0.12928152 -0.0063669058 0.000423002
-0.23001972 -0.24733216 0.112376064 0.31643257 0.23652998 0.040535852 -0.17743078 -0.04805082
0.27190128 0.11900335 -0.07701271 0.18805698 0.11072036 0.15363942 0.08827364 -0.111255206
0.13285024 -0.2647301 0.09714908 -0.22829086 0.12617505 -0.3424018 -0.010091426 0.042911083
-0.0020691233 0.028351145 -0.00067341933 0.019377489 -0.011705052 -0.015882874 0.007523241 -0.01202217
-0.024371978 -0.0009252087 -0.02251733 0.016422909 -0.0051992303 0.0019756218 -0.002124908 0.0012161972
0.016551543 -0.009734477 -0.00026657182 -0.010536209 -0.0025421819 -0.02595468 -0.02040458 0.035507873
-0.025379175 -0.025057163 0.007013914 -0.01368223 -0.024950841 -0.017041579 -0.015126313 0.008324005
0.0055469163 -0.009788784 -0.01975236 0.0067195916 -0.003179324 -0.013858291 0.008132194 -0.0033201012
-0.028140973 -0.012446932 -0.012397472 0.0076233647 -0.015300589 -0.0400674 0.01608864 0.014753839
0.0040714126 0.0057855365 0.010977454 -0.017360361 0.00029886543 0.006865947 -0.009423087 0.019391783
0.008392272 -0.028950159 -0.00296483 -0.031949215 -0.027039811 0.016270222 0.013759038 -0.015169866
0.1286381 -0.122687474 -0.054508816 -0.3353287 -0.1299543 -0.31349078 0.09402465 0.20718871
0.05630455 -0.0059726485 -0.2352522 0.40919584 -0.42519656 -0.07008726 0.27955163 -0.44838175
-0.0393104 0.10386393 0.1447177 0.01772198 -0.1475258 -0.25999138 -0.23911747 0.027500102
-0.02067208 -0.09159528 -0.029653274 -0.0720989 -0.21289295 0.07421182 -0.2527617 0.12713422
0.19402036 -0.11454892 0.0417225 0.19202839 0.21670854 0.25164044 -0.20722207 0.058958612
0.04971251 0.27647784 -0.1411145 -0.18954717 -0.034372877 0.27475503 0.20072709 -0.0637668
0.16172968 -0.1610026 -0.114847645 0.17181848 0.02814131 -0.299148 0.025799481 0.26629847
-0.091940254 0.07611558 0.19152974 -0.12996846 -0.12660007 0.3064098 -0.017197818 0.20914204
-0.18775418 0.40658095 0.3523326 -0.034682073 0.36225057 0.009527758 -0.03002036 -0.011728329
-0.077711254 -0.10200688 0.110908 0.09172377 0.23975915 -0.21239257 0.118526414 0.17793162
-0.40257382 0.048438974 -0.06230351 0.37821773 0.30367953 -0.19310902 -0.31581634 -0.09554905
-0.15990336 0.0806166 0.36182567 0.020191992 0.03823923 0.113566965 -0.35826784 -0.015912822
-0.18944286 -0.0050448407 0.31680658 0.23075302 0.13305935 0.07995194 -0.120191015 0.37623748
-0.52196074 -0.30849466 -0.038110938 0.23764166 0.25977165 0.062789984 -0.010737443 -0.037830465
0.48515868 -0.3235613 0.03502221 0.09749144 0.012506833 -0.006264746 -0.3270488 -0.18349357
0.113748215 -0.11670479 0.080395855 0.16166052 -0.4871238 0.12835339 0.11201232 0.2962522
00000000: c45c e53d 1624 b7bc 57d9 c7bc 4910 8ebd
00000010: d23c 173e 9c01 11be c4be b8bd d0ba 113a
00000020: 57ba d8bd 8e11 bc3d d0aa 1bbb f1a6 973d
00000030: a7bf bcbd 2b30 bebc b232 6f3d 9fa5 623d
00000040: ac51 be3d e4dd 8d3d ba1f 15bd c4bc 173e
00000050: 8a0c 0d3e e59d 9abe e321 bfbb a7e6 97bc
00000060: 0f93 86bd 1c0c 8fba 9e8d e43d 8a9c ddbd
00000070: 790d 9bbb 4be3 db3d 6fae 133d dc10 cb3d
00000080: 943e debd a408 1cbd c0e2 37bd f9bd 483e
00000090: 6932 e63d 6062 043e 7aa1 d0bb 5ec6 dd39
000000a0: 4a8a 6bbe a444 7dbe 6c25 e63d 7303 a23e
000000b0: ea34 723e ec08 263d 6ab0 35be f0d0 44bd
000000c0: a536 8b3e 07b8 f33d d7b8 9dbd 0292 403e
000000d0: 5bc1 e23d a753 1d3e cfc8 b43d c5d9 e3bd
000000e0: e509 083e b48a 87be 19f6 c63d 14c5 69be
000000f0: 0834 013e 4a4f afbe 8256 25bc 88c3 2f3d
00000100: 219a 07bb a940 e83c 6888 30ba 8abd 9e3c
00000110: 8cc6 3fbc cd1c 82bc 8585 f63b a3f8 44bc
00000120: bea7 c7bc b489 72ba 4376 b8bc 5689 863c
00000130: 4e5e aabb 6f79 013b 0a42 0bbb ce68 9f3a
00000140: 1a97 873c 5b7d 1fbc aac2 8bb9 10a0 2cbc
00000150: bc9a 26bb e99e d4bc 8127 a7bc b470 113d
00000160: fde7 cfbc ae44 cdbc fad4 e53b 6f2b 60bc
00000170: b565 ccbc c89a 8bbc 5bd4 77bc 6861 083c
00000180: e8c2 b53b 2361 20bc b4cf a1bc 0530 dc3b
00000190: 355c 50bb e30d 63bc e53c 053c 0e96 59bb
000001a0: e687 e6bc 37ee 4bbc c41e 4bbc 6bcd f93b
000001b0: 52af 7abc b71d 24bd 53cc 833c 16ba 713c
000001c0: 7c69 853b 9994 bd3b c7da 333c 5137 8ebc
000001d0: 0ab1 9c39 bdfb e03b 4b63 1abc 84db 9e3c
000001e0: bd7f 093c e228 edbc 984d 42bb 2edd 02bd
000001f0: 9882 ddbc 2149 853c 976d 613c 088b 78bc
00000200: b5b9 033e 9243 fbbd a344 5fbd 34b0 abbe
00000210: bd12 05be dd81 a0be ff8f c03d 4729 543e
00000220: 9a9f 663d 35b6 c3bb f4e5 70be 1e82 d13e
00000230: 5db3 d9be e989 8fbd 6421 8f3e 4b92 e5be
00000240: f103 21bd 9db6 d43d e030 143e b02d 913c
00000250: 0111 17be 971d 85be 36db 74be e547 e13c
00000260: 7e58 a9bc 4e96 bbbd 6ceb f2bc 97a8 93bd
00000270: 9c00 5abe 5efc 973d fb69 81be 792f 023e
00000280: 46ad 463e a098 eabd 36e5 2a3d 17a3 443e
00000290: d8e8 5d3e 04d7 803e 0632 54be 967e 713d
000002a0: 589f 4b3d 818e 8d3e 5280 10be a718 42be
000002b0: 93ca 0cbd b1ac 8c3e 678b 4d3e 2b98 82bd
000002c0: 779c 253e dedd 24be 3e35 ebbd 2ff1 2f3e
000002d0: 9b88 e63c ed29 99be 6f59 d33c 4658 883e
000002e0: 2c4b bcbd 7ce2 9b3d 5f20 443e 7416 05be
000002f0: 73a3 01be bfe1 9c3e 70e2 8cbc 5529 563e
00000300: a242 40be 612b d03e f064 b43e ca0e 0ebd
00000310: e878 b93e 501a 1c3c 42ed f5bc 2d28 40bc
00000320: 1427 9fbd fce8 d0bd bc23 e33d acd9 bb3d
00000330: 6c83 753e 707d 59be fabd f23d b533 363e
00000340: 281e cebe f267 463d f731 7fbd c1a5 c13e
00000350: e27b 9b3e 5fbe 45be aeb2 a1be 38af c3bd
00000360: b5bd 23be 511a a53d 3741 b93e ad69 a53c
00000370: bda0 1c3d cc95 e83d e26e b7be 9b5b 82bc
00000380: 4ffd 41be 314f a5bb 7934 a23e 854a 6c3e
00000390: b640 083e d8bd a33d b526 f6bd 33a2 c03e
000003a0: 389f 05bf 03f3 9dbe 371a 1cbd 5658 733e
000003b0: ca00 853e 0998 803d 1aec 2fbc 1ef4 1abd
000003c0: b866 f83e d4a9 a5be 7373 0f3d 98a9 c73d
000003d0: 76e9 4c3c 8048 cdbb f172 a7be bde5 3bbe
000003e0: d3f4 e83d ec02 efbd 95a6 a43d 568a 253e
000003f0: 4a68 f9be 126f 033e b766 e53d 5eae 973e

context_transformer_0/ffn_layer_2/intermediate_dense/einsum/Einsum;context_transformer_0/ffn_layer_2/intermediate_dense/Relu;context_transformer_0/ffn_layer_2/intermediate_dense/add f4 [32]
-0.13597041 -0.3763131 -0.18352777 0.1344488 -0.07764489 -0.21562558 -0.23430584 0.021804199
-0.11097672 -0.16759837 -0.10041388 -0.269281 -0.22310258 -0.353062 -0.29628018 -0.20755242
0.19137274 -0.4128933 -0.19569787 -0.22722349 -0.23049772 -0.16688514 -0.07788912 -0.08420934
-0.17461315 -0.09497839 -0.23899214 -0.12997037 -0.091178864 -0.15521279 -0.24245644 -0.17635727
00000000: d43b 0bbe 1cac c0be b4ee 3bbe f2ac 093e
00000010: 4904 9fbd f4cc 5cbe dfed 6fbe b89e b23c
00000020: c347 e3bd e89e 2bbe cba5 cdbd 33df 89be
00000030: 0175 64be 8bc4 b4be 09b2 97be 9f88 54be
00000040: 37f7 433e c066 d3be 0665 48be 46ad 68be
00000050: 9807 6cbe f0e3 2abe 5584 9fbd f275 acbd
00000060: cacd 32be 0884 c2bd 5bba 74be f416 05be
00000070: fcbb babd 1af0 1ebe 8046 78be 0097 34be

context_transformer_0/ffn_layer_1/norm/mul;context_transformer_0/ffn_layer_1/norm/add;context_transformer_0/ffn_layer_2/intermediate_dense/einsum/Einsum;context_transformer_0/ffn_layer_2/intermediate_dense/Relu;context_transformer_0/ffn_layer_2/intermediate_dense/add f4 [32, 32]
-0.12781265 0.020733738 0.083659396 -0.25000533 -0.0056413054 0.003148021 0.056096483 0.099885516
-0.038230024 -0.15645902 0.03783186 0.0382135 -0.20497045 -0.12770537 0.27428225 0.06340132
-0.15862267 0.052401457 0.086232655 -0.08459593 -0.34129325 -0.18243237 -0.14558965 -0.2099736
-0.15978678 0.0021824865 -0.46923512 0.06651854 -0.09687091 -0.10235203 -0.026357591 0.07832565
-0.27571633 -0.14240304 -0.00717754 -0.20588641 -0.21347956 0.21069525 0.13988653 0.013213943
-0.06044146 -0.15442055 0.097557575 -0.2955085 -0.19124568 0.07121353 -0.06748205 0.097329766
0.008853495 0.14811918 -0.047008775 0.2287154 0.36799204 -0.32003042 -0.06626527 -0.035628617
-0.1357795 -0.059148964 0.10345713 0.028229412 -0.039063077 0.060574114 -0.2072159 -0.074616775
0.04540141 0.1397925 0.10367928 -0.087810986 -0.090579554 0.011498083 -0.09126973 0.13319194
0.04334951 0.043812525 0.0059947963 0.18191819 -0.082723446 0.22297741 -0.096958235 -0.19866101
-0.06725239 -0.17730469 -0.071232885 -0.003144245 -0.020855661 -0.13478725 0.25831327 0.081722036
0.17311218 -0.057686523 -0.23104328 0.17868577 -0.3145975 0.17618589 0.14770594 -0.00026285625
0.0025769842 0.21605344 0.09339428 0.12917425 -0.06508572 -0.09663047 0.09851472 0.27191117
0.013208724 -0.107660055 -0.08476845 -0.17192234 -0.31273198 -0.07901645 0.21218403 0.17489254
-0.038365047 -0.22999673 -0.26875103 0.02626951 0.16003531 0.1070959 -0.20356278 0.31934133
-0.17372264 -0.06651369 0.41717327 0.06476014 -0.2478844 0.20226184 -0.009122848 0.09163354
-0.16445132 0.3197579 -0.07819748 0.10586913 0.22841477 -0.3473525 -0.14831002 -0.18051879
-0.010812909 -0.2401578 0.19525409 -0.02942182 0.15666309 -0.22837898 0.21024261 0.018710246
-0.07891119 0.33562353 0.042249665 0.027091883 0.08557205 -0.20927024 -0.15136993 -0.1477428
0.030658808 -0.03114676 0.063008495 -0.09198815 0.25824973 0.14563665 -0.051880065 0.045715712
0.051013224 0.060444694 -0.12778753 0.1580462 0.25837916 -0.18446046 0.14772856 0.20986867
0.01724493 0.016552337 0.23216338 -0.026938893 -0.004735135 -0.11648393 0.074909836 0.14863466
-0.08376304 -0.095406376 -0.03946343 -0.30445188 0.06458434 -0.55991715 -0.4817311 0.15747428
-0.14042367 0.06239592 -0.03842259 0.052538663 -0.027399568 0.23423004 -0.014673634 -0.06724941
0.03218591 -0.12636317 0.09650887 -0.008771056 0.0035115262 -0.03605706 -0.03321667 0.42153493
-0.06485736 0.010072545 -0.02921517 0.12651347 0.28509557 -0.37596425 0.03632679 -0.112374045
0.17535818 0.12587881 0.29998973 0.0346243 0.092188835 -0.14037551 0.2413554 -0.1914223
-0.15576568 -0.16166994 0.063804075 -0.13107295 0.06711071 0.11599537 0.08568099 -0.21063876
-0.10322264 0.14516306 0.065157704 0.27258644 -0.013283957 0.31433028 -0.009314564 0.21504591
-0.018311199 0.13662429 0.10268597 -0.12163732 0.16852616 -0.059652492 0.23039424 0.3078668
0.1483181 -0.11450606 -0.18799719 0.2527503 0.1697322 -0.048434213 -0.096324876 -0.15738139
-0.31519467 -0.025742797 -0.14810494 -0.34354055 -0.059470847 -0.15142113 0.018521372 -0.08672415
00000000: 52e1 02be cdd9 a93c 9e55 ab3d b300 80be
00000010: b3da b8bb 074f 4e3b 6dc5 653d c790 cc3d
00000020: 1697 1cbd cb36 20be 95f5 1a3d c285 1c3d
00000030: c6e3 51be 32c5 02be b96e 8c3e 8dd8 813d
00000040: fb6d 22be e9a2 563d bf9a b03d a240 adbd
00000050: fdbd aebe 8dcf 3abe 7415 15be 5203 57be
00000060: 259f 23be 0c08 0f3b 963f f0be df3a 883d
00000070: 4164 c6bd f19d d1bd e0eb d7bc 3369 a03d
00000080: b12a 8dbe 1ad2 11be 9231 ebbb e3d3 52be
00000090: 639a 5abe 7fc0 573e 6a3e 0f3e 4b7f 583c
000000a0: 7791 77bd 6c20 1ebe 44cc c73d e44c 97be
000000b0: e8d5 43be 66d8 913d 0734 8abd d454 c73d
000000c0: 400e 113c 8eac 173e 468c 40bd 5f34 6a3e
000000d0: 7469 bc3e 07db a3be 16b6 87bd 50ef 11bd
000000e0: c809 0bbe 2f46 72bd 55e1 d33d 5e41 e73c
000000f0: 9b00 20bd 901c 783d 6830 54be aed0 98bd
00000100: d4f6 393d c425 0f3e cd55 d43d 3fd6 b3bd
00000110: c681 b9bd 7562 3c3c a0eb babd 7863 083e
00000120: 418f 313d c374 333d ff6f c43b c348 3a3e
00000130: e96a a9bd 3154 643e 0a92 c6bd cb6d 4bbe
00000140: 9fbb 89bd 5c8f 35be 8ce2 91bd ad0f 4ebb
00000150: 7ed9 aabc ab05 0abe a341 843e e25d a73d
00000160: 5244 313e b448 6cbd 9c96 6cbe 67f9 363e
00000170: ec12 a1be 136a 343e 3a40 173e f8cf 89b9
00000180: 9fe2 283b 1d3d 5d3e 8045 bf3d 4146 043e
00000190: a94b 85bd 32e6 c5bd 16c2 c93d f137 8b3e
000001a0: 6769 583c e07c dcbd 159b adbd 690c 30be
000001b0: 681e a0be 60d3 a1bd c546 593e 0817 333e
000001c0: ab24 1dbd 4384 6bbe bc99 89be 2833 d73c
000001d0: 4ce0 233e 1855 db3d c372 50be b580 a33e
000001e0: 59e4 31be 5438 88bd bc97 d53e f7a0 843d
000001f0: 68d5 7dbe ba1d 4f3e ff77 15bc 5eaa bb3d
00000200: ed65 28be 4fb7 a33e 0026 a0bd ead1 d83d
00000210: 90e5 693e 30d8 b1be 95de 17be ebd9 38be
00000220: a128 31bc edeb 75be b0f0 473e 0706 f1bc
00000230: 4a6c 203e 2edc 69be d749 573e 3b46 993c
00000240: 319c a1bd d9d6 ab3e fc0d 2d3d ccef dd3c
00000250: 6640 af3d f04a 56be b800 1bbe e349 17be
00000260: 2e28 fb3c 7d27 ffbc 990a 813d 4864 bcbd
00000270: 4f39 843e c621 153e 3180 54bd 6640 3b3d
00000280: 3ef3 503d db94 773d bcda 02be ddd6 213e
00000290: 464a 843e 34e3 3cbe 2846 173e d0e7 563e
000002a0: 3d45 8d3c c498 873c 3dbc 6d3e f4ae dcbc
000002b0: 3129 9bbb 208f eebd 546a 993d af33 183e
000002c0: f58b abbd 6b64 c3bd 68a4 21bd 1ee1 9bbe
000002d0: cb44 843d bb56 0fbf 75a5 f6be f040 213e
000002e0: 39cb 0fbe dd92 7f3d 0161 1dbd c832 573d
000002f0: 0f75 e0bc 00da 6f3e af69 70bc 0fba 89bd
00000300: 5fd5 033d 5965 01be 71a6 c53d 7ab4 0fbc
00000310: a221 663b 91b0 13bd 340e 08bd 6dd3 d73e
00000320: f0d3 84bd 5107 253c a754 efbc bf8c 013e
00000330: 0cf8 913e 637e c0be 66cb 143d 5d24 e6bd
00000340: 1891 333e 60e6 003e 4198 993e 36d2 0d3d
00000350: 80cd bc3d 99be 0fbe df25 773e 3504 44be
00000360: 0a81 1fbe ce8c 25be b6ab 823d fd37 06be
00000370: 5771 893d fb8e ed3d 8479 af3d b0b1 57be
00000380: 6466 d3bd a0a5 143e 6771 853d 7390 8b3e
00000390: f4a4 59bc e6ef a03e 1d9c 18bc ff34 5c3e
000003a0: 5e01 96bc 3de7 0b3e 064d d23d fd1c f9bd
000003b0: 1f92 2c3e 2c56 74bd 78ec 6b3e b8a0 9d3e
000003c0: b3e0 173e 2782 eabd 5682 40be 7d68 813e
000003d0: 47ce 2d3e f462 46bd fa45 c5bd 9628 21be
000003e0: 3261 a1be 8fe2 d2bc d2a8 17be 8ce4 afbe
000003f0: b497 73bd 240e 1bbe 22ba 973c 6e9c b1bd

context_transformer_0/ffn_layer_3/intermediate_dense/einsum/Einsum;context_transformer_0/ffn_layer_3/intermediate_dense/Relu;context_transformer_0/ffn_layer_3/intermediate_dense/add f4 [32]
-0.18202731 -0.22771429 -0.11574479 -0.24679948 -0.034941424 -0.04197182 -0.11551475 0.05240101
-0.018183483 -0.2848926 -0.15729621 -0.3517635 -0.011613763 -0.076308854 -0.09891851 -0.09056706
-0.16090912 -0.06147837 -0.053502344 -0.059759863 -0.06395576 -0.26592055 -0.11240434 -0.23428722
-0.076993294 -0.085046165 -0.25843883 -0.27294925 -0.027761135 -0.17734896 0.025835212 -0.30369234
00000000: 5e65 3abe ef2d 69be 9b0b edbd 01b9 7cbe
00000010: bd1e 0fbd a5ea 2bbd ff92 ecbd 71a2 563d
00000020: 87f5 94bc 71dd 91be 4212 21be 581a b4be
00000030: a747 3ebc d147 9cbd ca95 cabd 397b b9bd
00000040: 5cc5 24be bed0 7bbd 4625 5bbd c2c6 74bd
00000050: 3dfb 82bd bd26 88be 3f34 e6bd fde8 6fbe
00000060: a9ae 9dbd af2c aebd 1852 84be 01c0 8bbe
00000070: 526b e3bc f79a 35be 5ea4 d33c 907d 9bbe
